…
    },
    {
      "cell_type": "code",
      "metadata": {
        "colab": {
          "base_uri": "https://localhost:8080/"
        },
        "id": "J-j6Tsy4B58h",
        "outputId": "9485f453-1059-48c9-b686-12272d54f53a"
      },
      "source": [
        "device = torch.device('cuda:0' if torch.cuda.is_available() else 'cpu')\n",
        "model = VariationalAutoEncoder(2).to(device)\n",
        "print(model)"
      ],
      "execution_count": null,
      "outputs": [
        {
          "output_type": "stream",
          "text": [
            "VariationalAutoEncoder(\n",
            "  (conv1): Conv2d(1, 16, kernel_size=(3, 3), stride=(1, 1), padding=(1, 1))\n",
            "  (conv2): Conv2d(16, 32, kernel_size=(3, 3), stride=(1, 1), padding=(1, 1))\n",
            "  (pool1): MaxPool2d(kernel_size=2, stride=2, padding=0, dilation=1, ceil_mode=False)\n",
            "  (pool2): MaxPool2d(kernel_size=2, stride=2, padding=0, dilation=1, ceil_mode=False)\n",
            "  (linear1): Linear(in_features=1568, out_features=784, bias=True)\n",
            "  (linear_enc1): Linear(in_features=784, out_features=200, bias=True)\n",
            "  (linear_enc2): Linear(in_features=200, out_features=200, bias=True)\n",
            "  (linear_encmean): Linear(in_features=200, out_features=2, bias=True)\n",
            "  (linear_encvar): Linear(in_features=200, out_features=2, bias=True)\n",
            "  (linear_dec1): Linear(in_features=2, out_features=200, bias=True)\n",
            "  (linear_dec2): Linear(in_features=200, out_features=200, bias=True)\n",
            "  (linear_dec3): Linear(in_features=200, out_features=784, bias=True)\n",
            "  (t_conv1): ConvTranspose2d(32, 16, kernel_size=(3, 3), stride=(1, 1), padding=(1, 1))\n",
            "  (t_conv2): ConvTranspose2d(16, 1, kernel_size=(3, 3), stride=(1, 1), padding=(1, 1))\n",
            "  (unpool1): MaxUnpool2d(kernel_size=(2, 2), stride=(2, 2), padding=(0, 0))\n",
            "  (unpool2): MaxUnpool2d(kernel_size=(2, 2), stride=(2, 2), padding=(0, 0))\n",
            "  (tlinear1): Linear(in_features=784, out_features=1568, bias=True)\n",
            "  (sigmoid): Sigmoid()\n",
            ")\n"
          ],
          "name": "stdout"
        }
      ]
    },
    {
      "cell_type": "markdown",
      "metadata": {
        "id": "rl7fAcZ_FYxl"
      },
      "source": [
        "# Training"
      ]
    },
    {
      "cell_type": "code",
      "metadata": {
        "id": "oRQLF_6IFfTx"
…
